models/mario/mario.tflite (tflite, 206748 bytes, 9 tensors)

Const_1 f4 [32]
000000 95 aa a1 bb 80 d5 a7 3c b6 26 87 3c b4 1e 7c 3b
       -0.004933665 0.020487547 0.016497951 0.003847045
000010 f6 e1 bb bb c3 4c 87 bc 1c c6 09 bb 95 3a 00 3c
       -0.0057337238 -0.016516095 -0.0021022623 0.007826467
000020 51 56 14 3c ea 57 7c ba 46 89 2f bc 27 ff 83 bc
       0.009053783 -0.00096261373 -0.010713881 -0.016112877
000030 ea 37 fa 39 38 14 c7 3c 6c bd 3a 3c 50 c9 32 bb
       0.00047725375 0.024301633 0.011397701 -0.0027280636
000040 56 ea e4 bb 02 3b ad bb 77 1a b3 bc 07 48 d5 b9
       -0.006985943 -0.0052865753 -0.021863205 -0.0004068019
000050 75 c1 d3 bc 8b e6 53 bc 0a 14 a2 bc be db da bc
       -0.025849083 -0.012933384 -0.019784946 -0.02671611
000060 31 c8 8f 3c ed f5 4f bc a3 a3 33 3c 07 eb d6 3b
       0.017551513 -0.012692911 0.010964307 0.006558779
000070 12 96 b5 bc 24 1a b3 bb c6 7a ab bb 6a fe a7 bc
       -0.022166286 -0.0054657627 -0.0052331416 -0.020507056

Const_2 f4 [32]
000000 e5 6f 83 3f ef de 82 3f c4 a4 7f 3f a7 c2 7f 3f
       1.0268523 1.0224284 0.9986079 0.9990639
000010 11 02 8a 3f e6 88 7f 3f 78 50 89 3f 19 44 81 3f
       1.0781881 0.99818265 1.0727682 1.0098907
000020 5a 9d 7b 3f 49 c8 7f 3f 3f 2c 83 3f 12 29 78 3f
       0.98286974 0.99914986 1.0247878 0.9693767
000030 f2 c7 7f 3f a8 51 86 3f 7d 75 82 3f 05 d2 7c 3f
       0.9991447 1.049367 1.0192105 0.98757964
000040 d6 88 83 3f 72 c5 7f 3f 60 c1 7f 3f aa e8 7f 3f
       1.0276134 0.9991065 0.9990444 0.9996439
000050 c8 aa 7f 3f fe 94 83 3f 40 66 82 3f 5a 72 7f 3f
       0.99869967 1.0279844 1.0187454 0.9978386
000060 39 60 7f 3f df 89 7f 3f 42 48 7c 3f 13 ca 81 3f
       0.997562 0.9981975 0.98547757 1.0139793
000070 61 65 79 3f f0 62 80 3f ff 84 7f 3f a0 c0 7f 3f
       0.97420317 1.0030193 0.9981231 0.999033

Const_3 f4 [32]
000000 9b 1b 85 3c af 1d d6 3c 72 36 ee 3c cc e9 89 ba
       0.016248515 0.026137201 0.029078696 -0.0010521947
000010 bf 6e 9a 3d 0a aa 70 bb 90 57 6a 3d c1 be a0 3c
       0.075406544 -0.0036722445 0.057212412 0.019622209
000020 69 82 c8 3c 62 df bd ba 78 d9 40 3b 49 4d f0 3c
       0.024476247 -0.0014486129 0.0029426496 0.029333727
000030 e0 c7 88 3c 28 7d d0 3c cb 8f 7d 3c 8a b7 c9 3c
       0.01669687 0.025450304 0.015476177 0.024623651
000040 bc 0b 1d 3d 9c 86 13 b9 ca ce 1f bb 89 92 a2 3a
       0.03834127 -0.00014069158 -0.002438473 0.001240329
000050 77 15 a7 bb 1c 34 a4 3c cd c5 d2 3c e2 b2 ba bb
       -0.0050989944 0.020044379 0.025729084 -0.005697594
000060 6e fd 52 bc 60 3f 54 bc ba 77 0b 3c 54 ca 80 3c
       -0.012877805 -0.012954563 0.008512432 0.015721478
000070 c1 db 60 bd a3 c8 c9 3c cf de 46 bc 80 8d ad bb
       -0.054897074 0.024631804 -0.012138083 -0.005296409

Const_5 f4 [32]
000000 33 12 ac bd eb 3a f8 bd ed 54 aa 3c da 2b a1 bd
       -0.08401909 -0.12120613 0.020792449 -0.07869692
000010 70 df 16 be 1d 56 d3 bd e7 0b 96 bb f5 17 98 3d
       -0.14733672 -0.10319159 -0.0045790556 0.074264444
000020 60 aa 15 3e 24 5f 23 be 2f 76 b1 3d 5b 84 27 3e
       0.14615774 -0.15954262 0.0866512 0.16359083
000030 88 51 07 bd ca d9 d6 bb 30 93 ce 3d 63 57 1b bd
       -0.03303674 -0.006556724 0.100866675 -0.037925135
000040 51 44 4a bd 19 f1 24 3d 5a ab ca 3d cc 65 b6 3d
       -0.049381558 0.04026899 0.09895964 0.08906135
000050 06 81 b5 3b 0c 85 7d bd ea 19 6d bd fb 74 ca 3d
       0.0055390624 -0.06189446 -0.05788604 0.098855935
000060 c8 92 29 3e 40 6e 03 bc 39 ed 0c 3d c3 91 ca bc
       0.16559899 -0.008021891 0.03440592 -0.024727708
000070 6e 5d 58 bd b7 35 ad 3d 70 34 89 3d 6a cb 04 3e
       -0.052823476 0.08457511 0.06699455 0.12968221

Const_6 f4 [32]
000000 9e 59 7f 3f 3c 1d 7b 3f 60 fd 80 3f c2 89 93 3f
       0.9974612 0.98091483 1.0077324 1.1526415
000010 11 83 75 3f 12 a5 8c 3f f7 e2 7e 3f 0f 46 9d 3f
       0.95903116 1.0987875 0.9956507 1.2287005
000020 3e ba a1 3f 85 16 83 3f 40 fe 80 3f 3f 78 8d 3f
       1.2634962 1.0241247 1.0077591 1.1052321
000030 65 9c a6 3f ba a3 82 3f 22 c2 88 3f 3e 08 8a 3f
       1.3016478 1.0206215 1.0684245 1.0783765
000040 86 cd 7e 3f bf 67 7f 3f f5 b5 7e 3f 9d d6 83 3f
       0.99532354 0.9976768 0.99496394 1.029987
000050 e8 52 a2 3f f4 01 85 3f ce a2 7c 3f 58 d3 87 3f
       1.2681551 1.0391221 0.9868592 1.0611372
000060 54 a9 a1 3f e5 2a 83 3f 94 52 ac 3f 25 23 a2 3f
       1.26298 1.0247465 1.3462701 1.2666975
000070 bb f7 a1 3f 60 91 7e 3f 25 3c 89 3f ea 35 81 3f
       1.2653726 0.99440575 1.072148 1.0094578

Const_7 f4 [32]
000000 56 42 15 bc 75 f3 15 bc 10 c5 cd bb e8 05 3b 3d
       -0.009110054 -0.009152283 -0.006279595 0.04565993
000010 5a 80 38 bd e8 7a ad 3d 89 e1 69 bb 08 16 87 3e
       -0.04504428 0.08470708 -0.0035687408 0.26383996
000020 7f a9 87 3e a4 0b 63 3c 2c 22 09 bb 97 69 c3 3c
       0.26496503 0.013857756 -0.002092491 0.02385406
000030 e4 fa 8b 3e 9f 15 7f 3b ae e2 dc 3d a0 aa 53 3d
       0.27339852 0.00389228 0.10785423 0.051676393
000040 c0 14 7a 3b 63 c8 9b bb 4c a3 99 bb 54 2c 75 3c
       0.003815934 -0.0047541126 -0.004688656 0.014964182
000050 66 5b 88 3e 73 51 eb 3b 19 05 3e bc c5 2d a3 3c
       0.2663223 0.0071813404 -0.011597895 0.019919286
000060 04 ab 87 3e 9a 2c 8d 3c cc 98 99 3e 91 01 85 3e
       0.26497662 0.017233182 0.29999387 0.25977758
000070 e8 00 88 3e 6e 56 82 bb 88 0f 14 3d f3 f1 17 3c
       0.2656319 -0.0039775884 0.036147624 0.009273994

MatMul f4 [32, 1536]
000000 72 25 a7 bc 61 41 0b 3c 73 48 7c 3c da 5a 7f b9
       -0.020403598 0.008499474 0.015398133 -0.0002435254
000010 b6 30 ab bc a6 12 94 bc 65 85 97 ba 1a b5 af bc
       -0.02089725 -0.018075299 -0.001156014 -0.02144866
000020 d3 ec 24 3d ee 39 02 bc 7b 5b ea 3b fe 42 23 3d
       0.040264916 -0.007948382 0.0071520186 0.03985881
000030 e4 15 ac 3c 68 0d 10 bd c9 b4 93 bb 06 a7 e6 bc
       0.021006532 -0.035169035 -0.0045076353 -0.028155815
000040 a2 d3 b6 3c f7 78 f7 bc 13 61 03 3b 55 b4 94 bc
       0.022317711 -0.030209048 0.0020046874 -0.018152395
000050 74 0c 87 3c be af f1 3b 6e 8e 9a bc 7b b5 2a 3c
       0.01648543 0.0073756864 -0.018866744 0.010419245
000060 1b a5 4c bb 9f c9 a2 3c c0 0e ff 3b 1b 21 52 3c
       -0.003122634 0.019871531 0.0077837408 0.012825276
000070 c4 f9 c0 bc 7c fd 66 bb 31 70 8e bc 27 56 3d 3c
       -0.023556598 -0.0035246303 -0.017387481 0.011556185
000080 9e a5 24 bc 58 3b c1 3b 25 fe 45 3c 45 66 aa 3c
       -0.010049252 0.005896967 0.012084519 0.020800719
000090 8c a9 9a bc bb f3 63 bb ab f5 6b 3c aa a9 fb bb
       -0.018879674 -0.0034782726 0.0144018335 -0.0076801376
0000a0 9c 94 65 3c 00 21 07 bd 28 17 83 bc 40 c0 79 bc
       0.014012482 -0.032990456 -0.016002253 -0.01524359
0000b0 59 58 cf bc 40 8a 89 3c 06 f6 a2 bc 46 3b 58 bc
       -0.025310682 0.016789556 -0.019892704 -0.013197726
0000c0 e0 1e 9a 3c 5d df b2 bc bc cd f7 3b bd 6b 7d bc
       0.01881355 -0.021835024 0.0075623672 -0.015467581
0000d0 aa ce 96 3c ca c1 ff 3b 56 e5 6a bc c1 6e 74 3b
       0.018409092 0.007805084 -0.0143369045 0.003729746
0000e0 fd fd 95 3c 67 8e 00 3c e1 b9 97 bc 70 22 a2 3c
       0.018309588 0.007846451 -0.018521251 0.019791812
0000f0 0f ba 9f 3c 30 de a9 3c 3b d1 52 3b 8d da 91 ba
       0.0194979 0.02073583 0.0032168168 -0.0011127755
000100 e9 fd 38 3a d9 fa 96 bb a9 41 77 bc 70 fc 50 3c
       0.00070568785 -0.00460754 -0.015091338 0.012755498
000110 ca 68 ea bb 7f 2f fb bc b1 41 c0 bb bb e0 65 3c
       -0.007153605 -0.030662296 -0.005867206 0.014030631
000120 30 ac 91 bc 3c 02 b0 3c b0 91 ac 3c f7 2a 7d 3c
       -0.0177823 0.02148544 0.021065563 0.015452138
000130 ba f7 8b bc 5b 7e d3 bc 89 01 70 bc 27 9e ba 3b
       -0.017085899 -0.025817087 -0.0146488035 0.0056951228
000140 be dd 93 bb 18 17 9c 3c 15 20 90 3c b5 56 4f 3a
       -0.0045125177 0.01905398 0.017593423 0.00079093437
000150 dd b1 3e bb 8e bd 9e 3c ec 06 93 bb ec 5b e1 3c
       -0.0029097714 0.019377496 -0.004486909 0.027509652
000160 c3 80 0c bc 35 0e c5 3c 3c 1a b9 bc aa 54 a4 bb
       -0.008575621 0.024054626 -0.022595517 -0.0050149756
000170 7d 28 93 3c ad b5 e9 bc 6b c5 8e 3c af 73 01 3c
       0.017963642 -0.028529013 0.01742812 0.007901116
000180 fc bb d7 bb 85 9a 92 bc 2b 0f 85 bb 09 a9 ee 3c
       -0.006583689 -0.017895946 -0.004060646 0.029133337
000190 8c 06 04 bb 53 08 4b bc a2 b2 f8 3c 80 6a 88 bc
       -0.0020145504 -0.012392121 0.030358616 -0.016652346
0001a0 d7 d0 02 3d bc d3 92 bc 01 ee f4 bb 51 56 23 3d
       0.031937446 -0.017923228 -0.0074746613 0.03987724
0001b0 df cb a6 3c d7 c9 07 bd 36 0a 97 3c 8e f0 7c bc
       0.020360885 -0.033151474 0.018437486 -0.015438212
0001c0 2e d8 19 bd ff b0 05 3c e2 98 9e 3b 41 e6 d8 bc
       -0.03755968 0.008159875 0.0048400024 -0.026476981
0001d0 eb 15 f8 3c 69 65 2e bb 69 3d 58 3c d0 ae 16 bd
       0.030283889 -0.0026610738 0.013198235 -0.036787808
0001e0 4d ab 9b 3c 4c 90 04 bc aa fb e9 3b 66 9e a1 bb
       0.019002581 -0.008091044 0.0071405964 -0.0049322126
0001f0 ca 20 0a bc d0 fb 1f 3c 35 92 9e 3c d6 b1 b2 3c
       -0.008430669 0.009764627 0.019356826 0.021813314
000200 dc a5 d1 bb b3 ca 79 3b b5 75 bd bb 4b 06 db 3b
       -0.006397946 0.0038115203 -0.005781854 0.0066841
000210 91 55 97 3c 24 cb 91 3c 11 ed 2a 3c da a6 1b 3c
       0.018473418 0.01779706 0.010432498 0.00950023
000220 0c bd f5 bc b6 5a 4c bc 24 f4 84 bb 30 27 c6 3b
       -0.029997371 -0.012472799 -0.004057424 0.006047152
000230 98 8e 44 3c 83 75 82 3c 0c 7d bf bc c0 a4 d9 3b
       0.011996888 0.015925175 -0.023375057 0.006641954
000240 6e 16 f0 3c db 88 1c bb 6b 14 b4 bc 91 7a ac bc
       0.02930757 -0.0023885283 -0.021982392 -0.021054538
000250 59 31 5c 3b 96 05 ce 3c 44 9e 4c bb 45 42 c1 bb
       0.003359875 0.025149148 -0.0031222263 -0.0058977925
000260 14 5e 52 3c 1c cf f5 3c 78 57 e4 bc 3e d7 57 3c
       0.012839813 0.030005984 -0.02787374 0.013173876
000270 6f 22 4d 3b ef 3c 85 3c d6 26 29 3c 13 c5 85 3c
       0.0031301042 0.016264407 0.010324201 0.016329324
000280 ef 19 a1 bc 53 7e 5c 3c e8 83 5d 3a cf 8b 24 3c
       -0.019665686 0.013457852 0.00084501365 0.010043099
000290 88 26 96 3b 95 a8 66 bc 39 4f 20 bd ee ef 16 3c
       0.00458223 -0.014078279 -0.039138053 0.009212477
0002a0 b3 af de bc 43 40 01 3c 9f 48 b8 3c e7 96 a7 3c
       -0.02718339 0.007888856 0.022495566 0.020457698
0002b0 9b da e7 bb 40 55 93 bc 26 2f 46 3a 29 5e a1 3c
       -0.0070756203 -0.017984986 0.0007560126 0.01969822
0002c0 c0 e7 e4 ba d8 20 97 3c 5a 84 4c 3c e7 65 0c ba
       -0.0017464086 0.018448278 0.012482727 -0.0005355761
0002d0 5f b3 f7 3c 0e 1f 91 bc 83 1b 79 bc 05 54 d4 bb
       0.030236898 -0.017715003 -0.015204313 -0.0064797425
0002e0 0f 29 96 bc 3c 9d 8e 3b df 63 60 3b c5 8b 26 3b
       -0.018330125 0.00435224 0.0034239215 0.00254129
0002f0 d0 d9 95 bc 48 d0 c9 3a 17 bf 56 3b 30 8c c1 3c
       -0.018292338 0.0015397156 0.0032767707 0.023626417
000300 7e 45 b7 bb 9a 51 a9 3c af 02 ae bc d2 7b 1f 3d
       -0.005593001 0.020668793 -0.021241514 0.038936444
000310 6a 34 0b 3a b5 cf 09 bc ba f6 8f 3c c3 50 5f bc
       0.00053102395 -0.008411338 0.017573703 -0.013630095
000320 8c f8 8b 3c 7f df d1 bb c6 43 f2 bb 6c 54 8f 3b
       0.01708629 -0.0064048166 -0.007393333 0.0043740775
000330 c5 8e 93 bb 41 2d 3b 3a 8f 11 d3 3c 54 38 e4 3b
       -0.0045031034 0.0007140227 0.025765209 0.0069647226
000340 5c e4 35 3c 79 a9 28 bc d2 23 ba 3b 5f 13 af bc
       0.011101808 -0.010294312 0.0056805396 -0.021371542
000350 98 d9 5f 3c 6e 3b 94 3c 25 fc 00 bc cf 1d a3 bc
       0.013662718 0.018094745 -0.007872616 -0.019911675
000360 66 e2 d9 bc 45 52 99 3c c7 04 e6 bc d7 03 30 bc
       -0.026597213 0.018715987 -0.02807845 -0.010743103
000370 07 44 60 bc 18 1c b8 3c 0f 68 6e 3b ae a0 87 3c
       -0.013688094 0.022474334 0.0036377942 0.01655611
000380 8c 34 0a 3c c5 a1 7f 3c b8 83 11 bc 8b 8d ba 3c
       0.00843538 0.015602534 -0.008881502 0.022772571
000390 ac be a7 3c 37 d8 08 bc f4 70 f5 3c 80 8e 8d 38
       0.020476662 -0.008352331 0.029961087 6.7499466e-05
0003a0 73 85 d0 39 67 bd bb bc 20 47 11 ba a7 57 aa bc
       0.0003977228 -0.022917463 -0.00055419095 -0.020793749
0003b0 9e 46 97 3c b3 db c3 3a 30 68 2c 3c d0 79 db 3b
       0.01846629 0.0014942795 0.010522887 0.006697871
0003c0 46 95 94 3c 4d e6 27 3b 9b d7 c9 ba a0 db 22 3c
       0.018137585 0.0025619448 -0.0015399338 0.009940058
0003d0 0e a2 3d 3c 6a 46 2f 3c fd 13 39 bc ca a7 c6 bb
       0.011574281 0.01069794 -0.0112962695 -0.0060624825
0003e0 7a 69 83 3c ce c4 c4 3c d2 98 a8 bc e8 84 92 3a
       0.016041506 0.024019625 -0.020580683 0.0011178525
0003f0 48 7d 71 bb 09 53 7c bc 76 85 e3 bc 8b 37 47 3c
       -0.0036848355 -0.0154006565 -0.0277736 0.012159239

MatMul_1 f4 [32, 32]
000000 97 e9 39 3c 86 85 8e 3c 79 9b a5 3d a1 84 f4 3d
       0.011347196 0.017397653 0.08086295 0.119393595
000010 e2 a5 97 3c 3c 6e ce 3c 0a f4 ff 3d f6 0c 87 bd
       0.018511716 0.025199048 0.12497719 -0.06594269
000020 f8 dd db bd 62 4d ac bd 2c 7d bb 3a 32 2c 2e be
       -0.107356966 -0.08413197 0.0014304272 -0.17009047
000030 db 74 fc b9 9b 8c a7 bd a5 f8 17 3e 13 e3 40 be
       -0.0004815225 -0.08181115 0.14840944 -0.18836622
000040 39 7e 0b bd 29 19 05 3e 2d e8 19 3e 07 0d fe 3d
       -0.034055922 0.12997879 0.15029974 0.124048285
000050 45 69 a1 bd 3d c2 04 3e 49 4b 01 3d 76 a0 bf bc
       -0.07881407 0.12964721 0.03156594 -0.023391943
000060 21 87 35 be d5 8d 15 3e 8d 01 6d 3d fe 77 88 3d
       -0.17727329 0.14604886 0.057862807 0.06663512
000070 c9 77 7f bc 4a 41 04 3e cf f0 1e 3d b6 30 bc 3b
       -0.015592524 0.12915531 0.03880387 0.0057431115
000080 6a d2 23 be dd ce 24 be eb 37 92 3d 63 41 4b bd
       -0.15998235 -0.16094537 0.07139572 -0.049622905
000090 b8 21 ac bd 94 c8 99 bd 8d 6b a1 bc 75 8c cb 3d
       -0.08404869 -0.0750896 -0.019704605 0.099388994
0000a0 52 9d c0 3d cb 5b 2c bc 90 64 62 bc a9 23 18 be
       0.094050065 -0.010519932 -0.013817921 -0.14857353
0000b0 15 88 97 3d f1 72 12 3e 1e 09 56 3e d4 cb 11 3d
       0.073990025 0.14301659 0.20901915 0.035594776
0000c0 12 ee 10 bd 33 d6 69 bd 3b c6 a1 3d 1c ae d8 3c
       -0.03538329 -0.057089042 0.078991376 0.02645021
0000d0 9a a2 20 3e 71 37 f3 3c 12 77 8d bc 79 4b 73 3d
       0.15687028 0.029689522 -0.017268691 0.05939815
0000e0 60 74 ee bd 18 b4 25 bd 67 8a b6 3d 1d 43 e6 bd
       -0.116432905 -0.040454954 0.08913117 -0.112432696
0000f0 14 d6 ba bd 26 d6 13 bd 1a bb 7c bc 0f 5d 9d 3d
       -0.091228634 -0.0360929 -0.015425468 0.07683765
000100 ab db d0 bc 4e b6 0b 3d 4f be ff bd 4e 07 03 be
       -0.02549537 0.034109406 -0.1248747 -0.12795755
000110 e8 78 af bc fd 4a 28 bb 37 b0 f2 bd 90 58 42 3d
       -0.021419957 -0.0025679462 -0.118500166 0.04744774
000120 d0 5f 00 be 05 e3 b8 bd 91 1f 5a 3d f3 11 4d 3c
       -0.1253655 -0.090276755 0.05325276 0.012516486
000130 e3 d4 13 3e 69 a9 6c bb db 6d 9f 3d 36 a7 17 bc
       0.14436679 -0.0036111719 0.07784625 -0.009256175
000140 e4 ef 76 bd 53 76 ec bc fb c2 8e 3c 54 dc 2d bd
       -0.06028737 -0.028865015 0.017426958 -0.04244645
000150 a8 0d 0a 3e 28 99 0b 3e 42 70 67 bd 02 4c 9a bc
       0.13481772 0.13632643 -0.05650354 -0.018835071
000160 a0 b0 09 be 9a 80 d4 bd 6b 83 89 3d 29 5c 9d bc
       -0.13446283 -0.10376091 0.06714519 -0.019208984
000170 b6 9e fe bc 9c 79 e9 bd 89 65 20 3e e0 dd 24 3e
       -0.031081539 -0.11400148 0.15663733 0.16100264
000180 5f 4a 15 bd b4 0c 0c be 4f 5f c8 bc cc ce de 3d
       -0.03644788 -0.13676721 -0.02445951 0.10879287
000190 cf 69 69 3e 6c f0 30 bd 8a f3 20 3d bd c9 85 bc
       0.22794269 -0.043198034 0.039294757 -0.016331548
0001a0 a0 79 01 be 27 0d 11 3c 92 45 fa 3d 09 6a 1b 3d
       -0.12644053 0.008853233 0.12220301 0.03794292
0001b0 4b e2 c9 bd 2a 43 3a bd 8b b8 4c ba aa bc 4c 3e
       -0.09857615 -0.04547421 -0.00078094815 0.19993845
0001c0 09 da 47 3e d1 cd ad bc eb 3d ab bd c2 34 6a bc
       0.19516768 -0.021216305 -0.08361419 -0.014294805
0001d0 6b 59 63 bd 6f 32 35 3d 9d 3c 2c be e9 69 28 3e
       -0.055505197 0.04423755 -0.16819997 0.16446652
0001e0 61 05 33 3a cf 1f e7 bd b6 61 4a bd f4 58 08 3e
       0.00068291096 -0.11285364 -0.04940959 0.13315183
0001f0 19 64 74 3c f4 40 1c 3e df be f7 bd ec f8 09 bd
       0.014916443 0.15259153 -0.12096953 -0.033684656
000200 d1 bc cc 3c f3 18 c1 bd 36 1a 04 3d 80 cf 22 be
       0.024992378 -0.09428587 0.03225156 -0.15899467
000210 84 0f 5c 3d 24 d9 a8 3c e4 77 85 bd c0 36 bc bd
       0.053725734 0.020611353 -0.06517008 -0.0919013
000220 20 78 b0 3d 54 d5 16 3d c5 35 cd 3d 50 c2 d3 bb
       0.08616662 0.03682454 0.10020021 -0.006462373
000230 92 c2 3e 3e f5 81 8c bd 14 4a 17 3e 78 94 27 3e
       0.1862891 -0.06860725 0.14774352 0.1636523
000240 11 e8 00 bd 0c ff 11 3e af a3 b7 bd 2a 3b c6 bc
       -0.031471316 0.14257449 -0.08966767 -0.024198133
000250 7a ce f0 bd 03 ee c9 3d 75 be fb bc cc 0c 08 be
       -0.11758132 0.0985985 -0.030730465 -0.13286132
000260 92 25 f2 bd 14 64 24 3d 98 75 3b bd 23 ee 27 bc
       -0.11823572 0.040134504 -0.045766443 -0.010249647
000270 7c cc 98 3d 54 ef e2 bd aa 55 f7 bc 39 80 e6 3b
       0.07460877 -0.110808045 -0.030192215 0.0070343283
000280 b0 80 3c bc b7 20 59 bc 84 91 41 bd 2e 93 8c 3c
       -0.011505291 -0.013252429 -0.047257915 0.017160024
000290 0d b2 aa bd aa 34 98 bd 1a 59 f7 ba 2d b0 ac bd
       -0.08334742 -0.0743192 -0.0018871159 -0.0843204
0002a0 68 51 78 3d 18 a0 2b be 56 f8 82 3d 54 95 a3 3d
       0.06062451 -0.1676029 0.063950226 0.079874665
0002b0 21 0e 3c be 1b 49 a6 3d 8d ee 1c 3e 25 ef 1d bd
       -0.18364765 0.081194125 0.15325375 -0.038558144
0002c0 cb 57 3d 3e aa ec 2c bd b8 a0 40 bd 34 19 25 bd
       0.18490522 -0.042217888 -0.047028273 -0.04030724
0002d0 ed 0f ad bd 47 f4 95 bc 32 25 11 3b b2 d3 02 bd
       -0.08450303 -0.018304957 0.0022147414 -0.03194017
0002e0 1d fa a1 bd 42 57 53 3d d4 81 12 be be 5a e7 3d
       -0.079090334 0.051596887 -0.14307338 0.112966046
0002f0 3c c5 a2 bd c3 15 78 3b 2c 7f 10 be ea 3b 47 bc
       -0.07947776 0.0037854768 -0.14111012 -0.012160281
000300 5a b2 f1 3c 38 42 ec 3b 4e f1 be 3c 9e aa df 3d
       0.02950399 0.0072100423 0.023308422 0.109212145
000310 be 98 0a 3c e9 81 83 3d 95 2a 2b bd 11 a3 b2 bd
       0.008459268 0.06421263 -0.041788656 -0.08722509
000320 bc 3e 66 3d d7 8d a6 3d 50 8e 9f bd f2 93 2e bd
       0.056212172 0.081325226 -0.07790816 -0.04262156
000330 17 91 22 bd 69 c9 0f bd bb c4 ec bc 61 ce b0 3d
       -0.03968915 -0.03510419 -0.028902402 0.08633114
000340 b0 fc 05 3d 64 3f a3 bd 82 ca 86 3d ac 76 dd 3d
       0.032711685 -0.07971075 0.06581594 0.108136505
000350 43 b6 9f b9 89 30 01 3e 96 13 ba bd fa c2 e7 3d
       -0.0003046264 0.12616171 -0.09085767 0.11316486
000360 dc ce 93 3d be 2c 4e bd d4 3d d4 bd e6 7e 58 3d
       0.0721719 -0.05033564 -0.10363355 0.052855395
000370 08 ba 2d be fe e3 34 3d c1 69 1e be c2 a3 40 3d
       -0.16965497 0.044162743 -0.1547003 0.04703117
000380 82 2c cd 3d 4e d1 19 3d 9f b3 08 3e 29 33 02 3e
       0.10018255 0.037553124 0.1334977 0.12714829
000390 0f a4 2d be b5 5b ad 3d 16 83 d7 3d 0f 71 be bd
       -0.16957115 0.08464757 0.105230495 -0.09298908
0003a0 d4 61 24 3d 44 39 ea 3d 20 c4 28 be 43 b7 fe 3d
       0.04013236 0.11436704 -0.16481066 0.12437298
0003b0 05 21 17 3e a1 8f 68 bd c5 26 3d bd d4 b0 a3 3d
       0.1475869 -0.0567776 -0.04617955 0.07992712
0003c0 d7 b7 04 3c b3 ba 46 bb 61 f9 ca bb 01 81 e2 bd
       0.008100471 -0.0030323684 -0.006194279 -0.11059762
0003d0 fa a4 00 3d 7b 2b 3a 3d 30 42 28 3e 2b b4 ed 3d
       0.031407334 0.045451622 0.16431499 0.1160663
0003e0 34 07 2d 3d 92 37 c8 bd 90 a6 37 be 0e e1 ac 3d
       0.042243198 -0.09776224 -0.17934632 0.08441363
0003f0 92 72 ac bc 0c e9 ef 3d 89 2e 1d 3e 27 92 2f 3e
       -0.021050725 0.11714372 0.15349783 0.17145596

MatMul_2 f4 [1, 32]
000000 21 d1 73 3d c0 1e 83 3c 9e 0d e1 3c 04 b2 63 3e
       0.059525613 0.016005874 0.027472313 0.22235876
000010 ab 30 fc bd ec fe d9 3d bf 79 11 bb 93 74 97 be
       -0.1231397 0.106443256 -0.002219781 -0.29581127
000020 8a 84 ba be fc 81 e1 3d 81 63 06 3e 58 99 ee 3d
       -0.36429244 0.11011121 0.13123895 0.11650342
000030 18 ee c2 be da 0c fc 3d d9 22 a4 bd 80 3c 32 3e
       -0.38072276 0.12307139 -0.08014459 0.17405891
000040 9b d2 58 bc 0c 91 e3 3c fd ce c8 bc 7a 19 43 3e
       -0.013233806 0.027779125 -0.024512762 0.19052687
000050 09 5d b2 be 29 a3 1a 3e eb d0 e7 bb e8 bb 26 3e
       -0.34836605 0.15101303 -0.0070744655 0.16282618
000060 2d e3 b2 be d2 5b f9 3d a1 71 af be eb 17 c8 be
       -0.34938946 0.121757165 -0.3426638 -0.39080748
000070 f3 b0 b3 be da ba bc 38 6e 86 0b 3e ca af 13 3e
       -0.3509594 8.9993424e-05 0.136255 0.14422527
